…
activation=&#39;relu&#39;)(concatenated) x = Dropout(.2)(x) out = Dense(99, activation=&#39;softmax&#39;)(x) model = Model(inputs=[image, numerical], outputs=out) model.compile(loss=&#39;categorical_crossentropy&#39;, optimizer=&#39;adam&#39;, metrics=[&#39;accuracy&#39;]) return model . model = combined_model() model.summary() . ____________________________________________________________________________________________________ Layer (type) Output Shape Param # Connected to ==================================================================================================== image (InputLayer) (None, 128, 128, 1) 0 ____________________________________________________________________________________________________ conv2d_1 (Conv2D) (None, 128, 128, 8) 208 image[0][0] ____________________________________________________________________________________________________ activation_1 (Activation) (None, 128, 128, 8) 0 conv2d_1[0][0] ____________________________________________________________________________________________________ dropout_1 (Dropout) (None, 128, 128, 8) 0 activation_1[0][0] ____________________________________________________________________________________________________ max_pooling2d_1 (MaxPooling2D) (None, 64, 64, 8) 0 dropout_1[0][0] ____________________________________________________________________________________________________ conv2d_2 (Conv2D) (None, 64, 64, 32) 6432 max_pooling2d_1[0][0] ____________________________________________________________________________________________________ activation_2 (Activation) (None, 64, 64, 32) 0 conv2d_2[0][0] ____________________________________________________________________________________________________ dropout_2 (Dropout) (None, 64, 64, 32) 0 activation_2[0][0] ____________________________________________________________________________________________________ max_pooling2d_2 (MaxPooling2D) (None, 32, 32, 32) 0 dropout_2[0][0] ____________________________________________________________________________________________________ flatten_1 (Flatten) (None, 32768) 0 max_pooling2d_2[0][0] ____________________________________________________________________________________________________ numerical (InputLayer) (None, 192) 0 ____________________________________________________________________________________________________ concatenate_1 (Concatenate) (None, 32960) 0 flatten_1[0][0] numerical[0][0] ____________________________________________________________________________________________________ dense_1 (Dense) (None, 100) 3296100 concatenate_1[0][0] ____________________________________________________________________________________________________ dropout_3 (Dropout) (None, 100) 0 dense_1[0][0] ____________________________________________________________________________________________________ dense_2 (Dense) (None, 99) 9999 dropout_3[0][0] ==================================================================================================== Total params: 3,312,739 Trainable params: 3,312,739 Non-trainable params: 0 ____________________________________________________________________________________________________ . Pour que ça tourne vite il faut faire tourner sur GPU ! . from keras.utils import plot_model plot_model
…
